data.pth (torch, 7723 bytes, 6 tensors)

l1.weight f4 [8, 93]
0.5931452 0.16568473 0.268704 -0.8532391 0.71129054 -0.08735723 -0.24493043 0.13389817
-0.70414746 0.35664946 0.38867894 0.9134824 0.24750558 -0.5138597 -0.90641254 0.52610046
-0.4604375 0.085487306 0.06707296 -0.054568395 0.46326536 0.123592205 0.23750238 0.98635906
-0.10423146 0.569794 -0.6400188 -0.9327899 -0.07928606 0.22057776 0.40217987 0.36145303
-0.22618006 -0.11648344 -0.9281001 0.021429483 -0.1182628 -0.34553686 0.69236714 -0.30497965
0.10873381 -0.34252334 0.5868545 0.36686936 0.32987824 0.49810246 -0.5935672 -0.59921324
0.5727414 0.1496647 0.17116567 -0.10376915 0.5219296 0.58839625 -0.24004392 -0.31145194
-0.8528461 0.5307821 0.31336483 0.30517164 0.19244556 0.4921079 0.99542207 -0.51007164
0.56711745 -0.57952964 -0.3454232 -0.5959768 -0.0782784 0.10545768 -0.9821 0.553744
0.5358184 -0.20432764 -0.40603483 1.0872927 0.5158819 0.046577014 -0.13054302 -0.25323597
-0.43493775 0.46861187 0.32231984 0.6162697 0.5242908 0.27274188 0.6368016 -0.2521148
0.68131876 0.6410738 -0.040186558 0.058185227 0.36336082 -0.55227375 0.11222669 0.13643564
0.49990824 -0.7277017 0.266729 0.2162548 -0.24135709 -0.24962655 -0.16580902 0.234939
0.5161555 0.41619277 0.12548822 0.6940385 0.7635994 0.16106908 0.3301714 0.58816683
0.753057 0.48086584 -1.1195798 -0.21123314 -1.0162511 0.2451023 0.26584876 0.87022406
-1.0970792 0.3845049 -0.07791912 0.09224135 0.11373842 0.22291988 0.29317534 0.651146
0.26426998 0.4856214 0.29467118 0.2836966 0.39780253 0.08439194 0.36128828 0.7615265
0.816679 0.10655506 0.17669955 0.22871359 0.49281985 -0.59865993 -0.34144086 0.13949706
0.94445944 -0.21919021 -0.24403873 0.32245296 0.12760037 0.2587684 0.338665 -0.19733465
0.36098677 0.29039556 -0.030065432 0.74563587 -0.8481953 0.0075957673 0.30324233 0.73319995
0.28493625 0.6661722 0.07875611 -1.1021488 0.9248794 0.3089584 0.30038187 0.01805015
-0.8461513 -0.4637898 0.51387125 0.34192422 0.34410757 0.32091534 0.30075744 -0.26288503
1.0375931 0.909673 -0.322782 0.668993 0.04119929 0.31633437 0.32576576 0.2317911
0.49673703 0.38459146 0.056638476 -0.007815155 -0.11762083 0.97258276 0.5643586 0.6253783
-0.489075 0.09595298 -0.22671832 0.02672217 -0.08971286 0.65788966 0.4517236 0.35779852
-0.46249515 0.36525917 -0.036254816 0.64383554 -0.4778528 -0.8549853 -0.18467955 -1.0798962
0.085341536 2.2439704 -0.36367983 -0.23071063 0.8562866 0.23384076 0.6646426 0.31951597
-0.15257867 -0.1918216 0.3930141 -0.41013253 -0.43223202 0.4187729 -0.46481577 -0.7740244
-0.15044378 -0.77409846 -0.22849116 -0.7737491 -0.014168046 0.33992335 0.4791554 0.29773656
-0.031147555 1.1370338 0.60190433 0.069140635 0.18789291 -1.1692665 -0.06617783 0.31018043
-0.18430579 0.043544356 0.30203965 -0.44241655 0.06675381 -0.03883224 -0.15838133 -0.050521273
0.16178533 0.41009542 0.1968981 0.31044918 0.9508657 0.15534094 -0.8433303 -0.3306462
00000000: 5dd8 173f 42a9 293e 9293 893e e16d 5abf
00000010: 2317 363f 59e8 b2bd 0bcf 7abe 9a1c 093e
00000020: 0243 34bf c29a b63e ed00 c73e fcd9 693f
00000030: 1a72 7d3e 4f8c 03bf a70a 68bf 85ae 063f
00000040: 77be ebbe f813 af3d 8c5d 893d 1c83 5fbd
00000050: 1e31 ed3e e91d fd3d d333 733e 0782 7c3f
00000060: 4e77 d5bd 05de 113f 46d8 23bf 52cb 6ebf
00000070: bb60 a2bd 23df 613e 85ea cd3e 5f10 b93e
00000080: bf9b 67be df8e eebd f897 6dbf e28c af3c
00000090: c433 f2bd 35ea b0be f93e 313f 4b26 9cbe
000000a0: d5af de3d 385f afbe 193c 163f 4dd6 bb3e
000000b0: cde5 a83e 4907 ff3e 05f4 17bf 0a66 19bf
000000c0: 2e9f 123f b441 193e 0e46 2f3e ec84 d4bd
000000d0: 2e9d 053f 23a1 163f 13ce 75be a176 9fbe
000000e0: 1f54 5abf 56e1 073f 5b71 a03e 753f 9c3e
000000f0: 7310 453e 91f5 fb3e fbd3 7e3f 0e94 02bf
00000100: 9c2e 113f 0e5c 14bf 4fdb b0be f091 18bf
00000110: 6d50 a0bd 32fa d73d e86a 7bbf 2bc2 0d3f
00000120: 652b 093f 443b 51be cce3 cfbe 682c 8b3f
00000130: d610 043f 8ac7 3e3d 12ad 05be 25a8 81be
00000140: 29b0 debe e5ed ef3e 1b07 a53e dac3 1d3f
00000150: ec37 063f d3a4 8b3e 6e05 233f 3115 81be
00000160: e86a 2e3f 6a1d 243f a99a 24bd a253 6e3d
00000170: 6e0a ba3e d061 0dbf 1bd7 e53d c9b5 0b3e
00000180: f9f3 ff3e a94a 3abf b490 883e e671 5d3e
00000190: 5026 77be 1a9e 7fbe d7c9 29be d993 703e
000001a0: c422 043f 3817 d53e fc7f 003e 82ac 313f
000001b0: 407b 433f 4bef 243e 3a0c a93e 1a92 163f
000001c0: 58c8 403f 0c34 f63e 644e 8fbf 804d 58be
000001d0: 8414 82bf 19fc 7a3e 541d 883e 01c7 5e3f
000001e0: 176d 8cbf d4dd c43e 0f94 9fbd 08e9 bc3d
000001f0: b0ef e83d 1c45 643e 141b 963e 81b1 263f
00000200: 654e 873e 5ea3 f83e 24df 963e ae40 913e
00000210: c6ac cb3e aed5 ac3d c7fa b83e 67f3 423f
00000220: e011 513f 8a39 da3d baf0 343e e533 6a3e
00000230: e252 fc3e c741 19bf 56d1 aebe 51d8 0e3e
00000240: 18c8 713f 6673 60be 4ae5 79be 8e18 a53e
00000250: aca9 023e 4b7d 843e 8065 ad3e 1812 4abe
00000260: 42d3 b83e baae 943e c84b f6bc fee1 3e3f
00000270: 5423 59bf eae5 f83b 9442 9b3e feb2 3b3f
00000280: 2ae3 913e 438a 2a3f e24a a13d 3613 8dbf
00000290: e5c4 6c3f cc2f 9e3e a7cb 993e e8dd 933c
000002a0: 5f9d 58bf db75 edbe 118d 033f b110 af3e
000002b0: de2e b03e 044f a43e e1fc 993e de98 86be
000002c0: dacf 843f 54e0 683f af43 a5be 2043 2b3f
000002d0: 96c0 283d 94f6 a13e c5ca a63e a55a 6d3e
000002e0: 5154 fe3e 2ce9 c43e bffd 673d 230b 00bc
000002f0: 31e3 f0bd 2ffb 783f ce79 103f cb18 203f
00000300: 0a68 fabe ff82 c43d d928 68be 74e8 da3c
00000310: 60bb b7bd 756b 283f 5148 e73e 5e31 b73e
00000320: 2acc ecbe 4003 bb3e ee7f 14bd 68d2 243f
00000330: 1fa9 f4be 51e0 5abf a31c 3dbe 0a3a 8abf
00000340: 8bc7 ae3d 369d 0f40 3e34 babe 683f 6cbe
00000350: 9935 5b3f f473 6f3e 0426 2a3f 9997 a33e
00000360: 953d 1cbe e26c 44be 2539 c93e e4fc d1be
00000370: 844d ddbe 6769 d63e 55fc edbe 7726 46bf
00000380: ef0d 1abe 512b 46bf 96f9 69be 6c14 46bf
00000390: 1821 68bc 6f0a ae3e db53 f53e ed70 983e
000003a0: 2829 ffbc 538a 913f 6716 1a3f 9b99 8d3d
000003b0: 0067 403e 86aa 95bf 3e88 87bd f8cf 9e3e
000003c0: a8ba 3cbe 915b 323d f1a4 9a3e 6c84 e2be
000003d0: 39b6 883d 8e0e 1fbd b72e 22be 65ef 4ebd
000003e0: 0eab 253e 07f8 d13e a89f 493e 32f3 9e3e
000003f0: ef6b 733f b211 1f3e 7fe4 57bf 754a a9be

l1.bias f4 [8]
0.92823285 1.0160599 0.77388364 0.94209075 1.0870798 0.6948767 1.2554778 1.0549054
00000000: aba0 6d3f 400e 823f 3d1d 463f dc2c 713f
00000010: 6e25 8b3f 70e3 313f 7fb3 a03f 2407 873f

l2.weight f4 [8, 8]
0.6628657 -1.5798084 -0.38143766 1.6268457 0.4723831 -1.4083606 0.9616825 1.5528761
-0.32186976 -0.14684103 -0.321342 -0.022898598 0.11818343 -0.021182435 -0.35491472 0.27681908
-1.7912428 0.7244643 0.47870144 -0.6310718 1.0939612 1.8745987 0.75444937 1.4716599
1.5463784 1.592612 -1.3107606 1.1781598 1.7661058 1.0429286 -1.3202199 0.8518265
0.05242269 -0.18552928 -0.28282386 -0.27424338 -0.029753476 -0.16147064 0.120024584 -0.18195747
0.4482771 1.3411814 2.4193141 -1.6344708 -0.46893504 -0.4904246 -0.17713797 1.4550422
1.340711 -1.0292089 1.3164443 1.0370617 1.64408 -0.53149486 -0.4786707 0.115291245
-0.2395835 0.28269407 -0.89967924 1.3745813 -0.33437258 -0.80615366 2.1005602 1.1074098
00000000: 91b1 293f 2937 cabf cc4b c3be 7b3c d03f
00000010: 33dc f13e 2945 b4bf d330 763f a5c4 c63f
00000020: 1dcc a4be 7f5d 16be f086 a4be d795 bbbc
00000030: 270a f23d c986 adbc 62b7 b5be 3bbb 8d3e
00000040: 7247 e5bf 7e76 393f 5b18 f53e ec8d 21bf
00000050: ec06 8c3f daf2 ef3f 9823 413f 5a5f bc3f
00000060: baef c53f b6da cb3f 01c7 a7bf f1cd 963f
00000070: c10f e23f af7e 853f f7fc a8bf 4d11 5a3f
00000080: 2db9 563d 63fb 3dbe 4ace 90be a169 8cbe
00000090: 90bd f3bc 8f58 25be 73cf f53d 0f53 3abe
000000a0: 9384 e53e d5ab ab3f 0bd6 1a40 5736 d1bf
000000b0: 4118 f0be ef18 fbbe a863 35be d33e ba3f
000000c0: 6b9c ab3f 1ebd 83bf 3f81 a83f 70be 843f
000000d0: 3771 d23f 0c10 08bf 5314 f5be d11d ec3d
000000e0: 6155 75be 47bd 903e 6151 66bf 48f2 af3f
000000f0: e232 abbe 1660 4ebf 946f 0640 9bbf 8d3f

l2.bias f4 [8]
0.14762878 -0.32528195 0.121086106 0.26265502 -0.059731916 0.6092049 0.56920934 1.043036
00000000: 002c 173e 5b8b a6be fefb f73d b87a 863e
00000010: 74a9 74bd daf4 1b3f b4b7 113f 3482 853f

l3.weight f4 [19, 8]
-1.7509189 -0.13294053 0.45784286 0.7340773 -0.30980328 -0.29149345 -1.3714944 -0.8426417
-2.6666048 0.29861942 -1.7105474 0.14900804 -0.26722834 0.7268789 0.3943551 -0.46607196
0.8757951 0.15689102 -2.0831113 -1.8863913 -0.1067333 -1.4943609 -0.045002226 0.9544959
-0.5667321 0.20212746 -0.34388238 -0.9968692 0.15933038 0.565144 0.55819803 -0.69834495
-1.9617218 0.1850946 0.4435807 0.021934906 -0.11775872 0.2593889 -0.23040299 -1.6165544
0.47277075 0.025429113 -0.2255517 -0.43215767 -0.0015014684 -0.36828476 -0.28234243 0.29653236
-2.42298 -0.3655224 0.30223975 -1.6201102 -0.22285102 0.8836434 -0.8894531 0.4365562
0.24801108 0.052321997 -1.6273595 0.30186066 0.31587532 -0.9850573 0.6940758 -1.7477759
-0.31295535 -0.13756052 -0.4530417 0.46511668 -0.056586474 0.013223506 -0.42576924 -0.45693067
-1.0911735 -0.22071745 0.8416804 -0.2545075 -0.2445661 0.7307731 -1.9781442 -1.546015
0.68019116 -0.26162755 0.25680932 -1.3099495 0.27535036 -1.5310471 -1.6241 0.6798756
-0.2157097 -0.08247053 0.5891424 -1.2597214 0.13369593 0.17969635 -0.5703429 -0.11446247
0.30793902 -0.3452751 0.19034594 -1.569835 0.20003945 0.10586353 -2.3822014 0.4562154
-0.3657863 0.037599165 -0.12714516 0.07079251 0.2985003 0.47096685 -2.016262 0.39366207
-2.564209 -0.25936732 0.8778982 0.11040267 -0.34109595 -0.36667165 -2.3566978 0.8081466
-0.030620782 0.1601777 0.3668035 0.40693194 -0.33320466 -1.9648217 -0.6208465 0.32026565
-0.7628444 -0.30892646 -0.7364903 -0.6442453 0.08380363 -0.8216048 -0.48545516 -0.59069955
-1.5528857 -0.24335477 -0.6496348 0.9721372 0.15033928 -1.752915 0.09928296 -0.9255981
0.4635062 0.039347082 -2.0489326 0.23985903 0.2738663 -1.8371387 0.26557395 0.30683637
00000000: 1c1e e0bf 9021 08be 616a ea3e 7dec 3b3f
00000010: 899e 9ebe a13e 95be 218d afbf 5eb7 57bf
00000020: a7a9 2ac0 a5e4 983e 38f3 dabf 9095 183e
00000030: 27d2 88be bc14 3a3f e9e8 c93e fca0 eebe
00000040: 1c34 603f 0aa8 203e b251 05c0 4575 f1bf
00000050: fd96 dabd 3847 bfbf 4154 38bd d859 743f
00000060: 5b15 11bf 80fa 4e3e 5a11 b0be d232 7fbf
00000070: 8127 233e 47ad 103f 11e6 0e3f bcc6 32bf
00000080: b319 fbbf 7089 3d3e 021d e33e d5b0 b33c
00000090: 7c2b f1bd 9fce 843e c3ee 6bbe 41eb cebf
000000a0: 020f f23e b750 d03c 06f7 66be c543 ddbe
000000b0: ebcc c4ba d28f bcbe 308f 90be 17d3 973e
000000c0: 1b12 1bc0 c125 bbbe 2bbf 9a3e c55f cfbf
000000d0: 0f33 64be 7436 623f 33b3 63bf 4b84 df3e
000000e0: 9ef6 7d3e 974f 563d 514d d0bf 7b8d 9a3e
000000f0: 69ba a13e b72c 7cbf f4ae 313f 1fb7 dfbf
00000100: af3b a0be aadc 0cbe 15f5 e7be c623 ee3e
00000110: 38c7 67bd 67a7 583c 6dfe d9be d1f2 e9be
00000120: 93ab 8bbf c103 62be 5e78 573f cf4e 82be
00000130: 896f 7abe f213 3b3f d433 fdbf d2e3 c5bf
00000140: 0221 2e3f 0cf4 85be 837c 833e 6dac a7bf
00000150: b9fa 8c3e 5af9 c3bf 82e2 cfbf 540c 2e3f
00000160: 01e3 5cbe 4fe6 a8bd 09d2 163f 8d3e a1bf
00000170: 96e7 083e 5202 383e fe01 12bf 4d6b eabd
00000180: 2faa 9d3e e6c7 b0be 0cea 423e 5af0 c8bf
00000190: 24d7 4c3e face d83d fd75 18c0 1195 e93e
000001a0: 5848 bbbe 9501 1a3d 5732 02be aafb 903d
000001b0: 08d5 983e 9122 f13e 700a 01c0 138e c93e
000001c0: 001c 24c0 cbcb 84be f0bd 603f cc1a e23d
000001d0: 21a4 aebe 63bc bbbe 23d4 16c0 b2e2 4e3f
000001e0: 6fd8 fabc 9f05 243e abcd bb3e 6259 d03e
000001f0: cd99 aabe 477f fbbf ccef 1ebf dcf9 a33e
00000200: c549 43bf 9c2b 9ebe a18a 3cbf 43ed 24bf
00000210: 3da1 ab3d b154 52bf 948d f8be 1638 17bf
00000220: f5c4 c6bf fe31 79be 774e 26bf fcdd 783f
00000230: 8af2 193e 855f e0bf dd54 cb3d fff3 6cbf
00000240: af50 ed3e 682a 213d b621 03c0 9b9d 753e
00000250: 3438 8c3e 5c27 ebbf 4ff9 873e a819 9d3e

l3.bias f4 [19]
-0.45547366 0.048138928 0.8201534 0.35185385 -0.14554246 0.0016257865 0.47920033 0.10086327
-0.28244814 0.43521574 -0.41717002 -0.11225384 -0.23995896 -0.044484872 0.4879472 -0.13947555
-0.29122436 -0.035941344 -0.041770525
00000000: d833 e9be 532d 453d 93f5 513f 3026 b43e
00000010: 1509 15be 5818 d53a bf59 f53e 6791 ce3d
00000020: 0b9d 90be 99d4 de3e 4f97 d5be 57e5 e5bd
00000030: cdb7 75be c535 36bd 37d4 f93e aed2 0ebe
00000040: 5c1b 95be 3b37 13bd 9217 2bbd
