extra/data.pth (torch, 5291 bytes, 6 tensors)

l1.weight f4 [8, 54]
0	0xbe59a2eb	-0.21253555
1	0x3f1258d9	0.5716682
2	0x3ef54a53	0.47908267
3	0xbe91ac83	-0.28451928
4	0x3ce22df6	0.027609807
5	0x3e81eaf1	0.2537456
6	0x3eee32ab	0.46523032
7	0x3eb03883	0.34418115
8	0x3f008b98	0.50213003
9	0x3ec44f8f	0.38341948
10	0xbe8af218	-0.27137828
11	0x3ef233de	0.47305197
12	0x3f5419d1	0.8285189
13	0x3f2184fb	0.6309354
14	0x3ef3cbb5	0.47616354
15	0x3ec36709	0.38164547
16	0xbe14c9fc	-0.14530176
17	0x3e9445e7	0.2895958
18	0x3e98842d	0.29788342
19	0xbef38a42	-0.4756642
20	0x3d34c42b	0.044132393
21	0xbf07d437	-0.5305819
22	0xbed9f77f	-0.42571637
23	0xbe41c1f1	-0.18921639
24	0x3f0fb713	0.56138724
25	0xbeb18286	-0.34669894
26	0x3eef406a	0.46728832
27	0x3f323fda	0.6962868
28	0x3ef908a0	0.48639393
29	0x3ea1c1ca	0.31593162
30	0x3e5da9c2	0.21646789
31	0x3f503f31	0.8134642
32	0xbe4674be	-0.19380471
33	0x3ecc54f3	0.3990856
34	0x3f462822	0.7740499
35	0x3e978c5b	0.2959927
36	0x3ecb498f	0.39704558
37	0x3f16e8f2	0.58949196
38	0x3e8e9ecc	0.27855527
39	0x3ee854ef	0.453773
40	0x3e36192c	0.1778304
41	0x3e79bbc3	0.24388032
42	0x3f20223f	0.62552255
43	0x3ee92743	0.45537767
44	0x3f3b44c7	0.7315182
45	0x3f4a45a8	0.79012537
46	0xbf08908b	-0.53345555
47	0x3af09539	0.0018355019
48	0x3e803f60	0.2504835
49	0x3ec3f94e	0.38276142
50	0x3e9dfa29	0.3085492
51	0x3e91892e	0.28424972
52	0x3ec6f763	0.38860616
53	0x3eb3d804	0.35125744
54	0x3ea13f69	0.3149369
55	0xbe3f8d4e	-0.18706247
56	0xbe1939b5	-0.1496342
57	0x3e5ef387	0.21772586
58	0x3dbefd38	0.093256414
59	0xbf099452	-0.53741944
60	0xbe45cb66	-0.19315872
61	0xbe2c810c	-0.16846102
62	0xbe96c9b1	-0.29450753
63	0xbd571df2	-0.052518792
64	0x3ebb036b	0.36526045
65	0x3dc8eeae	0.098111495
66	0x3e3b3101	0.18280412
67	0xbe3a26ba	-0.18178836
68	0xbd3c9023	-0.046035897
69	0x3e1395e3	0.14412646
70	0x3f050a82	0.5196916
71	0xbf099f41	-0.5375863
72	0x3ef4fbd9	0.47848395
73	0x3f10fbd4	0.5663426
74	0x3cc7a8e8	0.024372533
75	0x3f091170	0.5354223
76	0x3f2db7a6	0.6785835
77	0x3f056b60	0.52116966
78	0x3ced72f5	0.02898548
79	0x3ebf620d	0.37379494
80	0x3ef185fd	0.47172537
81	0xbed061d2	-0.4069963
82	0xbe16c6c2	-0.14724258
83	0xbe984605	-0.2974092
84	0xbee190fa	-0.4405592
85	0xbd2cd342	-0.04219366
86	0x3ec5e18b	0.38648638
87	0xbe88bbdc	-0.26705825
88	0xbe8b8b67	-0.27254793
89	0x3e6177fa	0.22018424
90	0xbeb3ea12	-0.3513952
91	0xbe81e541	-0.2537022
92	0xbe0bf6f0	-0.13668418
93	0xbd8e3f2e	-0.06945644
94	0xbe8952e9	-0.26821068
95	0x3f0e7561	0.55647856
96	0x3e5dc696	0.21657786
97	0xbe4de4a7	-0.20106755
98	0xbe37be18	-0.17943609
99	0xbc91989f	-0.01777297
100	0x3de2d367	0.11075478
101	0x3e215d85	0.15758331
102	0x3e43dd20	0.19127321
103	0x3ef54353	0.47902927
104	0x3ea3146e	0.31851524
105	0x3f045b81	0.51702124
106	0x3d39909b	0.045303922
107	0x3e2f692f	0.17129968
108	0xbe84c4ba	-0.2593134
109	0xbee1c5e7	-0.440963
110	0xbdf560b9	-0.11981339
111	0x3ee18595	0.44047228
112	0x3ec07ba5	0.37594333
113	0xbf0a643a	-0.54059184
114	0xbd778bb1	-0.060435954
115	0xbde59de8	-0.11211759
116	0xbe0d97a8	-0.13827384
117	0xbe6f9d90	-0.23399949
118	0x3f1266dc	0.571882
119	0x3ea40a02	0.32038885
120	0x3e97b12c	0.2962736
121	0x3ec79508	0.3898089
122	0xbe235aaa	-0.15952554
123	0x3e95b7e7	0.2924187
124	0x3ecb1e10	0.39671373
125	0xbf0a62db	-0.5405709
126	0x3eb24698	0.34819484
127	0x3f375565	0.71614677
128	0xbe611257	-0.21979652
129	0x3f2fd951	0.68690974
130	0x3f38dc0e	0.72210777
131	0x3f549f56	0.8305563
132	0x3eb156bc	0.34636486
133	0x3ee0a82a	0.438783
134	0x3f106ce2	0.5641614
135	0xbe92c8f9	-0.28668955
136	0x3ea6c154	0.32569373
137	0xbe6c60b1	-0.2308376
138	0xbed57ad7	-0.41695282
139	0x3ec4b407	0.384186
140	0xbd518bd0	-0.051158726
141	0xbe14de97	-0.14538036
142	0xbcc7dc05	-0.024396906
143	0x3eae5369	0.34048012
144	0x3ed30576	0.41215104
145	0xbe28b558	-0.16475427
146	0x3e34bf98	0.17651212
147	0x3ca115c9	0.019663708
148	0xbeef4c79	-0.46738032
149	0x3f2133c7	0.6296963
150	0x3ea32458	0.31863666
151	0xbe6cd9bc	-0.23129934
152	0x3e83759b	0.25675663
153	0xbcffe55d	-0.031237299
154	0xbe9daaf0	-0.30794477
155	0xbd7b6326	-0.061373852
156	0x3f031cf4	0.51216054
157	0x3f222f84	0.63353753
158	0x3ec91584	0.39274228
159	0x3eaab01e	0.33337492
160	0xbd7b8cbf	-0.061413523
161	0x3eb01ae1	0.34395507
162	0x3dfa8c9b	0.122338496
163	0xbe89e423	-0.26931867
164	0xbd1df631	-0.038564865
165	0x3ec4c5ea	0.38432246
166	0x3e7ffe24	0.2499929
167	0xbf247218	-0.64236593
168	0x3eb36f8a	0.35046035
169	0xbdf42214	-0.119205624
170	0x3da96b6b	0.082724415
171	0xbe80a0a0	-0.25122547
172	0x3e96b658	0.29435992
173	0x3ebaaacd	0.36458436
174	0x3ed28b58	0.41121936
175	0x3ea7a2f9	0.32741526
176	0xbdf68b0f	-0.12038242
177	0x3ede4e2d	0.43419018
178	0x3e64702e	0.22308418
179	0xbf24756f	-0.6424169
180	0x3f23b56a	0.6394869
181	0x3f2b513b	0.6692082
182	0x3d148578	0.0362601
183	0x3efb7117	0.49109718
184	0x3f04c5ca	0.518643
185	0x3ef54a2e	0.47908157
186	0x3e9b711e	0.3035974
187	0x3e91c725	0.28472248
188	0x3f094110	0.536149
189	0xbec9098a	-0.3926509
190	0x3ec4c64b	0.38432536
191	0xbf0c9395	-0.5491269
192	0xbecc0e62	-0.39854723
193	0x3edf343a	0.43594533
194	0x3ea79415	0.32730165
195	0x3d58eb7b	0.052958947
196	0xbe125452	-0.14289978
197	0x3ed8a8d3	0.42316303
198	0x3e374a9d	0.17899556
199	0x3df0254c	0.11725864
200	0x3e21ad3d	0.15788741
201	0x3e31a0bd	0.17346473
202	0xbee65e38	-0.44993758
203	0x3efee9c2	0.49787718
204	0x3e9da548	0.30790162
205	0xbe033416	-0.12812838
206	0x3ea42f75	0.32067457
207	0xbdc97564	-0.098368436
208	0xbe04886b	-0.12942664
209	0x3d12549b	0.035725217
210	0x3f055006	0.5207523
211	0x3f241245	0.6409038
212	0x3ecb10a7	0.39661142
213	0x3f2ccd7d	0.6750105
214	0x3e908f10	0.28234148
215	0x3e9814e9	0.29703453
216	0x3f288fae	0.6584424
217	0x3dd4c100	0.10388374
218	0x3e4ffed1	0.20312048
219	0x3ec04411	0.3755193
220	0x3e06e17d	0.13171954
221	0x3f2250c1	0.6340447
222	0x3eb7450e	0.35794872
223	0x3e9b5fe1	0.30346587
224	0x3d67f498	0.056629747
225	0x3f09ac90	0.53778934
226	0x3e7fc0b1	0.2497585
227	0xbe66bd56	-0.22533163
228	0xbf03cedf	-0.51487535
229	0xbedda837	-0.432924
230	0xbe15cb8b	-0.14628427
231	0xbe3179d5	-0.17331631
232	0x3e9e1882	0.30878073
233	0x3f344fd2	0.70434296
234	0xbeb1dbd6	-0.34738034
235	0x3e8ece20	0.27891636
236	0x3f3539a6	0.7079109
237	0x3e0660b7	0.13122831
238	0x3e85aba1	0.26107505
239	0x3e2d0a6d	0.16898508
240	0x3d02bccf	0.031918343
241	0x3e67fb9a	0.22654572
242	0xbed048bd	-0.40680495
243	0xbf23daac	-0.6400554
244	0xbe5ad419	-0.21369971
245	0xbf024653	-0.50888556
246	0x3ec941e9	0.39308098
247	0xbea178b5	-0.31537405
248	0x3edf7b07	0.4364855
249	0x3e9f776f	0.31145808
250	0xbe9085ca	-0.28227073
251	0xbda30f0e	-0.07961856
252	0xbe167b9a	-0.14695588
253	0xbdbca43e	-0.09211014
254	0x3e0553e8	0.13020289
255	0x3e61afcc	0.22039717

l1.bias f4 [8]
0	0x3f07e8b3	0.53089446
1	0x3f099882	0.53748333
2	0x3f0a5e41	0.5405007
3	0x3f2477c1	0.6424523
4	0x3f858823	1.0432171
5	0x3f01a886	0.5064777
6	0x3f67d938	0.90565825
7	0x3f842883	1.0324863

l2.weight f4 [8, 8]
0	0x3fac4de7	1.3461274
1	0xbe2ff8ec	-0.171848
2	0x3f1fb8c0	0.6239128
3	0x3f7d5804	0.98962426
4	0xbf4d0106	-0.80079687
5	0x3fa80bd9	1.3128616
6	0xbf2ff63c	-0.687351
7	0xbf150a4c	-0.58218837
8	0x3f259edc	0.64695525
9	0x3f6e6e1d	0.9313677
10	0x3f7ff92a	0.9998957
11	0x3f99b63e	1.2008741
12	0xbf1c2b29	-0.6100336
13	0x3f2da6ad	0.6783245
14	0x3dcc2518	0.099680126
15	0xbf007380	-0.5017624
16	0xbf7f1557	-0.99641937
17	0x3f82d1b4	1.0220246
18	0x3f201256	0.6252798
19	0x3f81dfb9	1.01464
20	0x3f51824b	0.81839436
21	0xbf8a89b4	-1.0823274
22	0x3fa1a478	1.2628317
23	0xbec3be23	-0.38231
24	0xbe823b65	-0.2543594
25	0x3f72a6f3	0.94785994
26	0x3f16ab9a	0.58855593
27	0x3f80a99f	1.0051764
28	0x3fccb509	1.5992748
29	0xbd55f64c	-0.05223684
30	0x3fd0ef35	1.6323
31	0x3fcb8a94	1.5901666
32	0xbe04cc10	-0.12968469
33	0xbe3c5fae	-0.18395874
34	0x3d92e15c	0.0717189
35	0xbeb5b85f	-0.35492226
36	0x3c9dcb76	0.019262057
37	0x3cf719dd	0.0301637
38	0x3bf7728e	0.007551498
39	0x3e1b6f60	0.15179205
40	0xbe742243	-0.23841195
41	0xbea17c5a	-0.31540185
42	0xbe9adaf5	-0.30245176
43	0xbb917040	-0.00443843
44	0x3c6b4720	0.014360219
45	0x3e850085	0.2597696
46	0x3e90cdc9	0.28282002
47	0xbe5769ee	-0.21036503
48	0x3e826855	0.25470224
49	0x3f6c3ef5	0.92283565
50	0x3f857025	1.0424849
51	0x3fa17bf6	1.2615955
52	0xbf74011d	-0.953142
53	0xbf0a0f2d	-0.53929406
54	0x3e32077f	0.17385672
55	0x3f5612cb	0.83622426
56	0x3f7aa47f	0.9790725
57	0xbf79844b	-0.9746749
58	0xbf6acf87	-0.9172291
59	0xbf764831	-0.96203905
60	0x3fa34563	1.275555
61	0x3f7e0a9f	0.99234957
62	0x3ed00416	0.40628117
63	0x3f8fe2b6	1.1241062

l2.bias f4 [8]
0	0x3e97d97c	0.29658115
1	0x3f0ab7bc	0.54186606
2	0x3ef41c15	0.47677675
3	0x3f33440d	0.7002571
4	0xbea6336b	-0.32461104
5	0xbe8ceb46	-0.2752325
6	0x3ec442d5	0.3833224
7	0x3f3c5b33	0.7357666

l3.weight f4 [7, 8]
0	0x3f05346b	0.5203311
1	0x3f07ba19	0.5301834
2	0xbf62d749	-0.8860975
3	0xbf332d49	-0.69990975
4	0xbe0b317f	-0.135931
5	0xbe8c3580	-0.27384567
6	0x3e71bc1f	0.23606919
7	0xbf332195	-0.6997312
8	0x3f3da63e	0.7408179
9	0x3ebbff13	0.36718044
10	0xbead93e5	-0.33901897
11	0xbfa916a0	-1.321003
12	0xbdd2abf2	-0.10286702
13	0xbd96a07c	-0.07354829
14	0xbf5d4622	-0.8643514
15	0x3ed0e5ce	0.40800327
16	0xbfbbb656	-1.466502
17	0xbfb2e9c2	-1.3977587
18	0xbfa90c44	-1.3206868
19	0x3ee0f147	0.4393408
20	0xbe6e8839	-0.23294152
21	0xbd1e5c68	-0.038662344
22	0xbf22d9f1	-0.636138
23	0x3f2a144f	0.6643724
24	0xbfb368db	-1.4016374
25	0x3ea0166e	0.31267112
26	0x3f75a7a5	0.9595893
27	0x3d896fec	0.067108005
28	0xbdabbbb7	-0.08385413
29	0x3ddf9f70	0.10919082
30	0x3e31524a	0.17316547
31	0xbfae5046	-1.3618248
32	0xbeed7b56	-0.4638316
33	0x3e69b2c1	0.22822095
34	0xbec1e4aa	-0.3786977
35	0xba8615b1	-0.0010229853
36	0xbea816fa	-0.3283003
37	0x3c927f30	0.017882913
38	0x3f4e5aeb	0.8060748
39	0xbf8847ff	-1.0646971
40	0x3e0b2206	0.13587198
41	0xbda3c506	-0.079965636
42	0xbf1a9c99	-0.603952
43	0xbe4705ee	-0.19435856
44	0xbe4e5868	-0.20150912
45	0x3dbe8324	0.09302357
46	0x3d79c673	0.06098027
47	0x3ee07377	0.43838093
48	0xbf98158f	-1.1881579
49	0xbfa9d686	-1.3268592
50	0x3f0c3a6f	0.5477666
51	0x3e9ebcc5	0.31003395
52	0xbe33c2b3	-0.1755474
53	0x3e980c53	0.29696903
54	0xbdc0417f	-0.093874924
55	0xbc47fdba	-0.012206489

l3.bias f4 [7]
0	0xbea38281	-0.31935504
1	0x3e4a8f45	0.19781215
2	0x3da61837	0.08110087
3	0x3e7198b0	0.23593402
4	0xbeb5e1da	-0.35523874
5	0xbe769cbe	-0.2408323
6	0x3c867def	0.016417472
